onnx/model.onnx (onnx, 449 bytes, 2 tensors)

fc.weight f4 [5, 10]
000000 23 64 65 3e 03 95 99 3d eb 49 a0 be d2 2e 87 3d
       0.2240148 0.07499125 -0.31306395 0.06600727
000010 0d a1 85 be 68 66 05 be af c3 24 3e 9a 14 d9 3a
       -0.26099434 -0.13027346 0.16090272 0.0016561926
000020 da 98 7a 3d 83 9e 7f 3d ba ff 15 3e 03 cb 6f be
       0.061180927 0.062407028 0.14648333 -0.23417287
000030 9b 8e 54 3e e1 b8 87 be 68 ac ef bd 4b c5 f6 3c
       0.20757525 -0.2650824 -0.11702806 0.030123373
000040 f5 c6 99 bc d1 14 a8 bd a3 82 90 3d d3 bb 47 be
       -0.018771628 -0.082070954 0.07056167 -0.19505243
000050 ed da 0d 3e bc 20 a2 bc de 3b 78 3b f8 35 f0 3d
       0.13853045 -0.019791 0.003787748 0.11729044
000060 22 b7 2a 3e 62 70 08 3d 6c b1 41 3e 7a 33 8c 3e
       0.16671422 0.0333103 0.18915337 0.27383024
000070 59 17 81 3e 62 1a 9f 3e 14 09 2d 3e 7e 6f 9b 3e
       0.25213125 0.31074816 0.16897994 0.303585
000080 ed 3e ad 3d 17 e0 c8 3d 94 10 96 3e 0d 3f 90 3e
       0.08459268 0.09808367 0.29309523 0.28173104
000090 86 98 a8 bd c8 e6 80 3d 19 bc 46 be 77 a4 69 be
       -0.082322165 0.06294018 -0.19407691 -0.22816645
0000a0 28 b8 3d bb 4f 1f 7d 3e 68 98 c8 3d b8 1e 9e 3e
       -0.0028948877 0.24718975 0.09794694 0.30882812
0000b0 3b 5c 73 3d 24 43 7d 3e 8d 54 4b be 64 25 67 3e
       0.05941413 0.24732643 -0.19856472 0.22572857
0000c0 65 53 53 be 77 3a 75 be
       -0.20637281 -0.23948084

fc.bias f4 [5]
000000 a3 92 92 3b b0 4f 3c 3e 2a 4a 90 3e 26 2d 6c be
       0.004473047 0.18389773 0.28181583 -0.23064098
000010 d1 8f 6a 3d
       0.05726606
